chapter5_卷积神经网络/cnn.pth (torch_old, 248093 bytes, 10 tensors)

conv.0.weight f4 [6, 1, 3, 3]
00000000: 3e7a 7a3e 37bb d2bd 28db d43a 5c23 693e
00000010: 3802 85be c6c8 973e 9cac 9fbc c18b 643e
00000020: 053d fb3d 330c 1f3e 4804 9f3e f1a1 313e
00000030: f077 a63e d6ce a83d 7b89 0a3e f7f8 eb3d
00000040: f936 5c3e e8dc ef3d a5e0 d23e 7c66 533e
00000050: 724e abbd c060 f9bd 742b 323d c8b8 b1bd
00000060: 785b 4cbd 47b0 d73d 466c 8f3e 9c05 963e
00000070: dafe 41be 1f63 963e 3af4 483e 2f50 dc3e
00000080: 6feb 973e 84b8 acbe 70ef bfbe 898c 58be
00000090: e242 6a3f ee38 2e3f 983e 433f dc4b 2f3f
000000a0: a5c8 9f3f 4bc0 073f e70d 653f 88e6 1f3f
000000b0: 3863 803e 6a8e 003e f9cd 30be f53c fb3d
000000c0: dc47 11be f959 7dbd d04f acbe 9caf 2dbe
000000d0: c5c4 383e ac74 a6bd
0.24460694 -0.10289615 0.001623963 0.22767395 -0.25978255 0.29645365 -0.019491486 0.22318937
0.12267498 0.15531997 0.31057954 0.17346932 0.3251338 0.08242576 0.13529007 0.11522096
0.21505345 0.117120564 0.41187015 0.20644563 -0.08364572 -0.12176657 0.04349847 -0.08677822
-0.04989192 0.10531669 0.28012294 0.29301155 -0.18944874 0.29372498 0.19624415 0.43029925
0.2967181 -0.33734524 -0.37487364 -0.2114736 0.91508305 0.6805562 0.76267385 0.6847513
1.2483107 0.5302779 0.8947434 0.6246114 0.25075698 0.12554327 -0.17266072 0.12267486
-0.14187568 -0.061853383 -0.33654642 -0.16961521 0.18043812 -0.08127722

conv.0.bias f4 [6]
00000000: e99c a83e 048a 5d3e 8910 223b 9411 01be
00000010: 2f72 dd3c 91e4 673e
0.32932213 0.2163468 0.0024729094 -0.12604362 0.027031986 0.22645785

conv.3.weight f4 [16, 6, 5, 5]
00000000: 7101 7cbd 9232 383d d7aa e03c 9386 293d
00000010: 8e78 a0bd a4c2 b2ba c4fe 243c 289d d63c
00000020: 091d 55bd d39c 8dbd c497 883d 785f 0d3c
00000030: 6343 b83d 7c90 4f3d 90f7 6d3d 7847 9a3b
00000040: 2a9a c43c 70fa 2e3d c22f 8bbd a39c 6e3d
00000050: 1204 babd 2e34 cebd 075d 28bd 70eb 4cbd
00000060: b311 c73c 1c7d 80bd f29b d0bd e621 903c
00000070: 90dc 7cbd fc80 5cbc 5ec8 e53c 598d 8dbd
00000080: 6968 903b 6bd0 953a 75c7 bfbd 1895 95bc
00000090: 255f 713d ba3f 963d cb01 243d 82a8 d43c
000000a0: 7132 a53d ab65 5c3a b77d 9c3d d4a9 ab3d
000000b0: c24d 32bc 7b79 ecbd 699d 853c 2590 7dbd
000000c0: b15e 673b ec92 e4ba 909c d33c 7f45 433d
000000d0: 4ee4 4d3d abe3 99bd 81e7 d0bb c87e 963d
000000e0: 00d8 823d ac21 723d aa3d 5ebd 596e 96bd
000000f0: 1456 f7bc 4f9b ee3c 7888 fa3d 48e5 02bb
00000100: 01f9 953d fd87 33bd e1a4 5dbd b3ab ba3c
00000110: e00c dc3d 7184 083e bf65 72bd df1e 1b3c
00000120: 4a6b 613d d4dd 503d 5228 5f3d 536b 4b3d
00000130: 0c72 043d 1489 b63b 92f8 76bd 938f 80bd
00000140: b8c4 02bd 5158 57bc 8974 6dbd 6a8d 993c
00000150: 3096 963c fca9 2b3c 2617 903d 9cd4 c53d
00000160: b06b 053e 0072 e23d 6f46 183c 49ef 0d3e
00000170: 5500 b43d 53d7 d73d d118 c33a a112 5bbd
00000180: 8cfe 3fbd cdf3 c1bc 7bf4 923d f6da 68bc
00000190: 9f83 ecbd b44c 8ebd 56a0 f0bd bc35 05be
000001a0: 71f0 8bbe e6d0 073d 49a5 3dbd 56cd 56bd
000001b0: 3bb5 01be 22b5 3cbe 9be4 aa3d 7d96 433e
000001c0: 6eb7 8c3e eebb ae3e d3c2 943e f559 023e
000001d0: 7797 0f3e 6b42 0b3e e7b1 153e 92cb 713e
000001e0: ce7a 49be 2c50 7cbe 95fe a6be ae46 60be
000001f0: 6cb9 e0bd ac92 953d 2022 9dbd 0c76 8fbd
00000200: b172 2c3b 1c66 06bd d76e 933c 3521 4abd
00000210: 6a44 4dbd 3870 a03b 927b 6f3d 7712 96bd
00000220: e4b6 b33c a0df 163d 31f1 823d 453b 8abd
00000230: dd02 913c 581c 55bd 9300 9d3d 44b0 d2bc
00000240: c8ed 503d e17a 7c3c ec5f 6e3c 0f41 8a3c
00000250: fdbe fb3c 05c0 2b3d f4fa 8dba d399 c13b
00000260: ea01 a9bd 610d 873d 018d a03d 807c 633d
00000270: cb8a 813d 85c4 38bd 0428 b6bc 75d1 9c3d
00000280: 1106 80bd 0d13 ba3d ea17 6dbd 1e4b 58bd
00000290: 6cf9 0c3d 76b0 52bd 328e 29bc 22fe 913d
000002a0: f3ce 893d a811 893d 1ee7 82bc 4252 75bd
000002b0: 44cf c53d 1907 73bc 233b 20bd 25d3 323c
000002c0: 1fde c1bd 3cda 3c3c 53e2 403d 9eda 08bd
000002d0: f4e1 b8bd 28e7 1dbd 8579 323d cf06 053d
000002e0: dfb7 6dbc 6d90 81bc 726b 87bd eaac 6cbc
000002f0: ad6d 05bd bfae 593d 2893 8f3d d18a 8fba
00000300: e88b c23c 262b ce3c b5e5 d9bb 34bc 27bd
00000310: 4dbe 6b3d dff3 5d3d f022 c1ba 6b32 3abc
00000320: 8b46 8b3d efb7 713d d8f3 67bd 1354 8a3d
00000330: 7e2a b43c 9a80 76bd deb8 153d 5abf 93bd
00000340: b395 893d 1e56 28bd 1cb8 9b3c a92e 8f3c
00000350: d24a a23c 573f aa3d e290 c8bc 79e0 1ebd
00000360: 0c71 8abd c9c7 843c 7963 d1bc ecde c13a
00000370: 3428 94bc 0d72 2e3d a52e bd3d 75b8 103d
00000380: 6598 abbc 47fb 35bd a5b7 aebd 258d 2c3d
00000390: 3529 1dbd c3a8 103c 24da 88bc 218a aabd
000003a0: 2268 ae3c f93a 3f3d 6209 9b3c 80f8 8bbd
000003b0: a481 6fbd 7930 b6bb cd83 20bd d03e 13bd
000003c0: 6ead f7bc 7c6e f1bc 84f4 aa3c 6a05 8bbc
000003d0: 6c52 a43a 8dbb 09bd 1812 98bd 8ae6 ab3d
000003e0: c2e1 203d 3b91 ba3d 1075 0ebd a5dd 28be
000003f0: 9b95 74be c21c 9ebc bf79 503e d96b 26be
-0.061524812 0.044970103 0.027425213 0.041388106 -0.07835494 -0.001363833 0.0100705065 0.026197985
-0.052029643 -0.069146775 0.06669572 0.008628719 0.08997228 0.0506749 0.058097422 0.004708227
0.023999292 0.042719305 -0.067962185 0.05825485 -0.090828076 -0.10068546 -0.041104343 -0.05002922
0.024300432 -0.06273863 -0.10185994 0.017594289 -0.061733782 -0.013458487 0.028049644 -0.069117256
0.004406978 0.0011429911 -0.09364215 -0.01825957 0.058928628 0.073363736 0.040040772 0.025959257
0.080662616 0.00084074837 0.07641166 0.083820015 -0.010882797 -0.11546608 0.01631041 -0.061905045
0.0035304243 -0.0017438806 0.02583149 0.0476737 0.050266556 -0.07514127 -0.0063752537 0.073484
0.06388855 0.059114143 -0.054258026 -0.07345266 -0.030192412 0.029126791 0.122330606 -0.0019973088
0.07322884 -0.04383086 -0.05411232 0.02278695 0.10744643 0.13331772 -0.059179064 0.009467809
0.05503396 0.0509928 0.05448181 0.0496629 0.032335326 0.00557054 -0.06029565 -0.062773846
-0.031925887 -0.013143615 -0.057972465 0.01874419 0.018382162 0.010477539 0.07035665 0.09659693
0.13029361 0.110569 0.009294136 0.13860811 0.08789126 0.10539117 0.0014884715 -0.053484563
-0.046873614 -0.023675824 0.07175537 -0.014212361 -0.11548542 -0.06948224 -0.11749332 -0.1300878
-0.2733188 0.033158205 -0.046300206 -0.052441917 -0.1266679 -0.18428472 0.08344384 0.19100375
0.27483696 0.34127754 0.2905489 0.12729628 0.14022623 0.13599555 0.14618646 0.23612812
-0.19675753 -0.24639958 -0.32616106 -0.21901962 -0.109728664 0.07303366 -0.076725245 -0.070049375
0.0026313479 -0.032812223 0.017997188 -0.049348075 -0.050114073 0.00489619 0.058467455 -0.07327741
0.021937795 0.03683436 0.0639366 -0.06749586 0.01770156 -0.052028984 0.07666125 -0.025718816
0.051008016 0.015410156 0.014549237 0.016876725 0.030730719 0.04193117 -0.0010832236 0.00590823
-0.08252318 0.06594349 0.07839394 0.055538654 0.06325301 -0.04510929 -0.022235878 0.07657138
-0.06251157 0.09085665 -0.057884134 -0.052806012 0.034417555 -0.051437818 -0.010348843 0.0712855
0.067289256 0.06692821 -0.015979346 -0.0598929 0.096586734 -0.014833235 -0.039118897 0.010914599
-0.09466194 0.0115266405 0.04709084 -0.033411615 -0.09027472 -0.038550526 0.04357292 0.032477196
-0.01450917 -0.015815938 -0.066122904 -0.014445523 -0.032575298 0.053145166 0.0701049 -0.0010951405
0.023748353 0.02516706 -0.0066496977 -0.04095097 0.05755453 0.05418765 -0.0014735144 -0.01136456
0.068005644 0.059013303 -0.056629032 0.06754317 0.021992918 -0.060181238 0.036553256 -0.07214232
0.06718006 -0.041097753 0.019008689 0.017478304 0.019811068 0.08312862 -0.024483148 -0.038788293
-0.06759843 0.016208546 -0.025560128 0.0014791167 -0.018085577 0.042589236 0.09237412 0.035332162
-0.02094669 -0.04442909 -0.08531121 0.042126793 -0.038369376 0.008829298 -0.01670558 -0.08327127
0.021289889 0.0466871 0.018925373 -0.06834507 -0.058473244 -0.0055599776 -0.039188195 -0.035948575
-0.030234065 -0.029471628 0.020868547 -0.016970355 0.0012536771 -0.033626128 -0.07425326 0.08393581
0.0392778 0.09109732 -0.03477961 -0.164908 -0.23885195 -0.019300822 0.20358942 -0.16252078

conv.3.bias f4 [16]
00000000: 771f 6ebd 62df 8abd 0633 9abb da45 93ba
00000010: 85f4 923d 852b bc3c 3f7c 99bc d38a b4bc
00000020: 98f2 1cbd ebdc c63c 69a1 e9bd 017c afbd
00000030: 2280 383c 01bf c6bc 2add a7bc 3435 95bd
-0.058135476 -0.06780888 -0.0047057895 -0.0011236027 0.07175545 0.02296997 -0.018736003 -0.022038853
-0.038317293 0.024275264 -0.1140774 -0.08568574 0.011261018 -0.024261 -0.020491201 -0.07285538

fc.0.weight f4 [120, 400]
00000000: c3d0 ebbc 5346 06bd 874a e9bc a5fd 6cbd
00000010: 6e6a 52bd d7d4 4c3d 6da7 acbc 9526 043d
00000020: a145 5abd f19f e1bb 8b77 28bb 07cc 0bbd
00000030: f142 34bb cef8 ef3c 558e 9fbc bdf8 0f3d
00000040: 02e5 4bbc a2cb 20ba 1aaf d13c cd1f 473d
00000050: d8c2 373d 2ab8 063d 9cba f3bc 4299 f03b
00000060: 9751 073d c419 efbc 9fbb c83c be69 54bc
00000070: 7bb5 4cbd 290d e0bc fed2 13bd cca1 723c
00000080: f674 1dbd 82ab d2bc df26 023b 683a 0e3d
00000090: c19b 03bd aa02 073d f69b 75bc 8ef0 06bd
000000a0: b1b8 1c3d a2b2 2cbc acd0 183d d0e3 913c
000000b0: 42a9 8fbc 77dd 2fbc 4f66 bebc c33c 8dbc
000000c0: 943d 74bc 7ff0 35bb b4f9 18bd 11ff 1dbd
000000d0: feb5 4cbc 6efc 8b3c 68b7 1c3b 2c95 0abd
000000e0: ab42 95bc 8d6b 6b3b bd4c 2a3d 8fb9 37bd
000000f0: 2a5c febc e19e 83bb 2e4f 28bc a365 49bd
00000100: 1ab0 e13c 03cc 7fbc d9cb 8d3c 7014 e2bc
00000110: 20d3 4d3d 2faa c7bc adee b2bb f851 173d
00000120: 47d9 a53c 0ab2 f5bc bf47 0c3d 6b5c e1bc
00000130: d742 cabb 227a 743c 1d38 9fbb e9f8 e53c
00000140: 5a24 7fbc 284c 10bd ce32 c039 3453 373c
00000150: 1fcc e63c 1ad9 35bc 3565 e8ba 53aa ffbc
00000160: 92d3 16bd 36be 44bd 58f5 d4bc 7b29 c6bc
00000170: 355e 853c ce46 79bb 9769 143d b915 1f3d
00000180: 021d 22bd e901 213c e3c5 363d f02e 98bc
00000190: afe3 69bc c5c3 143d c9a3 16bd 47fb 363d
000001a0: 6047 8a3b 9ebe 223c 8334 2d3d ac60 3fbd
000001b0: 8fba 2e3d 95cf 36bd afbe c63c 3230 24bb
000001c0: 0f91 203d c58e 26ba bafc 48bd 1036 bb3b
000001d0: af7c 083d 2f01 22bc e182 41bd c617 e7bb
000001e0: 4c8b 713b 88c4 523c 782d 833c 1fea d9bb
000001f0: 7d84 2bbb 1407 f6bb 9320 f43c 9726 b43c
00000200: ff2b 983c 9fe9 e8bc 373c 8d3b 3207 513d
00000210: 6654 b23c 1ae4 3fbd a0ce a8bc d3c8 2e3d
00000220: b48c 9d3b 9e55 113d a598 8bbd 3a80 fdbb
00000230: 3ea3 d23c 387c e8bc a83d b5bc 99dc 3239
00000240: 810e 093c b8e3 dcbb 6bcf 2b3d bc48 e33b
00000250: 14f2 cbbb bb72 773d cd5b 413c de17 f8bc
00000260: 1021 d23c 968c 95bc 7ec6 443d c63e 603d
00000270: 5ce4 05bc 1854 003c 54da aebc e1e2 e2bc
00000280: 336b f6bc 0127 a33b eed5 d73c 840d 99bb
00000290: 111d 91bc b109 c0bc 4d76 23bd 149f 9fbc
000002a0: 6a25 6a3d af3c 39bd bc2c f53c 441c 003d
000002b0: ee1c 6bbc dbe3 80bb 53ed c6bc 5dff 20bd
000002c0: 72fe e73b ddf5 24bd 9be5 0bbc fb6f f5bc
000002d0: 3099 06bd e0fb 2cbd 5c8f 383d 1fe5 fd3c
000002e0: 9402 013d 2f16 b53c 7c1e cb3c c752 e53c
000002f0: ea70 113d fca4 273c d328 773b e638 0d3d
00000300: 88c5 bd3c 78ac c7bc 5e65 313d a75d 423d
00000310: 0bce a3bc f6ff 57bd a034 4ebc 21c3 13bd
00000320: a442 4a3d acc8 84ba 355a b3bb 47cb 243d
00000330: 5a3d 203c 2f06 ef3b b684 353d 74b9 30bd
00000340: de2c f73c 67cd bebc 01ea e63b cebd 73bc
00000350: 9847 2c3d 9041 90bc 6dc1 cb3b 86a2 20bd
00000360: ebbe 223d ce7d 50bd dabb 913c 55ff 0b3d
00000370: 1b09 3e3d 0b2a 173d dfc4 33bc 3f02 753c
00000380: 0e90 663c 6da0 4dbd e94f 3d3c 5f01 1abd
00000390: 5ec6 513c 5e65 2d3d 8298 8ebc 775e 53bc
000003a0: 05df 203d 45d8 253d 462e 433d b8bc 10bd
000003b0: 6078 373c 5454 12bd 296f 013d 75a1 1ebd
000003c0: 6589 a23c 5b68 5e3d 7f21 19bd 29c5 77bc
000003d0: 0b31 e4bc 5d76 603d a455 973a 8a46 9e3c
000003e0: 79fe 80bd 9482 e73b dd84 d83c 11e9 913b
000003f0: ac42 74bc cb50 d7bc 17dc f13c 1b2a 603c
-0.028786069 -0.03278191 -0.02847792 -0.05785908 -0.05137103 0.050007667 -0.021075929 0.032263357
-0.05328906 -0.0068855216 -0.0025706019 -0.034130123 -0.002750572 0.029293444 -0.019477049 0.035149325
-0.012444736 -0.0006133859 0.02559619 0.048614312 0.04486355 0.032890476 -0.029752068 0.0073424885
0.033036795 -0.02918709 0.024503527 -0.012964664 -0.04997776 -0.027350025 -0.03608989 0.014809083
-0.03844162 -0.025716547 0.0019859595 0.03472367 -0.03213096 0.032961525 -0.014990797 -0.032944255
0.038262073 -0.010540636 0.03730838 0.017808825 -0.017536763 -0.010733954 -0.023242144 -0.017240888
-0.0149072595 -0.0027761755 -0.03734751 -0.03857333 -0.012494562 0.017088141 0.002391303 -0.033833668
-0.018220266 0.003592226 0.04157709 -0.044854697 -0.031049807 -0.0040167426 -0.010272784 -0.049169194
0.027549792 -0.015612605 0.017309116 -0.027597636 0.050250173 -0.024373142 -0.0054605813 0.036943406
0.020245207 -0.029992122 0.03424811 -0.027509889 -0.0061725187 0.014921697 -0.004858984 0.028072791
-0.015572632 -0.03522888 0.00036658946 0.011189271 0.028173504 -0.011099124 -0.0017730357 -0.031209147
-0.036822863 -0.04803296 -0.025995895 -0.024189701 0.016280273 -0.0038036588 0.03623351 0.038839076
-0.039578445 0.009827116 0.044622313 -0.018577069 -0.014275475 0.036319513 -0.03677729 0.04467323
0.0042199343 0.009933142 0.042286407 -0.046723053 0.042658385 -0.04463156 0.024260847 -0.002505314
0.03920084 -0.0006353672 -0.049069144 0.005713232 0.033322033 -0.0098879775 -0.047243956 -0.0070523946
0.003685671 0.0128642395 0.016012892 -0.006650224 -0.0026171498 -0.007508168 0.029800689 0.021991057
0.018575666 -0.028431712 0.0043101567 0.051032253 0.02176876 -0.046848394 -0.020606339 0.04267199
0.004808033 0.03548204 -0.06816224 -0.007736233 0.025712606 -0.028379545 -0.022124127 0.00017057582
0.008365274 -0.0067410134 0.041945856 0.006936161 -0.0062239263 0.06041215 0.011801672 -0.030284818
0.025650531 -0.018255513 0.04804086 0.054747365 -0.008172121 0.0078325495 -0.021344341 -0.027696075
-0.030080413 0.004979015 0.026347127 -0.0046708006 -0.017714055 -0.023442121 -0.039907742 -0.019485034
0.057164587 -0.045223888 0.029928558 0.031276956 -0.014350159 -0.0039334125 -0.024283087 -0.039306033
0.007079893 -0.040273536 -0.008538629 -0.029960623 -0.032860935 -0.042232394 0.045058593 0.030993043
0.0314966 0.022105305 0.02479481 0.027993573 0.035508074 0.010232206 0.0037713542 0.03447809
0.02316548 -0.024374232 0.043309562 0.047452595 -0.01999571 -0.052734338 -0.012585789 -0.03607476
0.04937996 -0.0010130606 -0.0054734 0.040232923 0.009780252 0.0072944383 0.044316016 -0.043145612
0.030172762 -0.023291303 0.0070469384 -0.014876796 0.042060465 -0.017609388 0.0062181265 -0.039217494
0.039732855 -0.050901227 0.01778977 0.03417905 0.046395402 0.03690533 -0.010972231 0.014954149
0.014072431 -0.050201822 0.011554697 -0.037598964 0.012803642 0.042333 -0.017406706 -0.01290094
0.039275188 0.040489454 0.04765155 -0.035336226 0.011198133 -0.035724953 0.03160015 -0.038728196
0.019840905 0.05429874 -0.03738546 -0.01512269 -0.027855417 0.05480038 0.0011545909 0.019320745
-0.06298537 0.0070651267 0.026430542 0.0044528325 -0.014908474 -0.026283642 0.029523892 0.013681914

fc.0.bias f4 [120]
00000000: f402 40bc 8fe5 2a3d d667 8b3c 4a18 6ebc
00000010: c2c4 313c f182 0c3d 9859 143d f80e 53bd
00000020: ea5d efbb ac2a 173d 96e5 283d 9a7a 0c3c
00000030: de15 79bc ebbf d83c 30f2 3fbc 7b28 34bc
00000040: c361 013c c376 9fbb 99f5 26bd f787 253d
00000050: c487 603d 703d 1abd 370e 83bc dc5a 763c
00000060: 8de9 bf3b 7858 3c3d 4ec4 e53b 14c7 ecbc
00000070: cf5f 093d 17ca ba3b 556b f1bc bd60 b7bb
00000080: 74f2 173d 4b35 68bd ecc3 433c 7b70 be3c
00000090: 2c07 393d 127e 983a 494a 27bd feba 813a
000000a0: fc33 efbc f01e d7bb 3e44 90bc 4e45 35bd
000000b0: b445 b4bc 662f 18bd b21c 2dbd 717b 4cbd
000000c0: 21ec d53c c2a6 3bbd bd1d 273d 3c06 d0bc
000000d0: a053 b7bc 377e e83c fa81 96bc d10c d0bb
000000e0: 1fe8 233d 97ef 0fbc bfa6 203d 20ab ff3c
000000f0: 8456 9fb9 a508 fa3c cfed 19bc 585e b3bb
00000100: 847d b9bc 0231 82bc 133a 3f3d e3db 1abc
00000110: af2b a8bc 6130 ec3c dbb6 f33c 5a2b 6b3c
00000120: ef90 413d 43ce 283b 9c94 c93c 9dfc 1ebd
00000130: c1f9 e23c 9c3c 183a e8a7 1a3d c7c8 173d
00000140: b64f e1bc 0344 6dbc d993 a6bc 9ff6 67bc
00000150: 99fe a0bc 4869 3b3d d6da dabc 2976 51bb
00000160: 6995 e73b b889 40bb fb87 22ba 4d7b 6fbc
00000170: facb 9e3b 1ed2 29bb f1ae 1fbd 2208 263d
00000180: edaf a83c 12e1 043d 50b5 363c 039e f13c
00000190: 9c68 1e3d 2683 11bd 24a6 143d b332 bf3b
000001a0: 509b 2fbd f98d df3b cc54 5b3c ff6e 0dbd
000001b0: 8cfa 31bd f1ef 40bd 11bf ddbc 21b6 41bd
000001c0: e9fe 093d b7ea fcbc 356b 2bbd b595 1abd
000001d0: 3ea9 f2bb 8c78 bb3c 74e7 163d 2169 2e3c
-0.011719454 0.04172283 0.017017286 -0.014532158 0.010850133 0.034304563 0.036218256 -0.051527947
-0.0073048966 0.03690593 0.041234575 0.008574152 -0.015202967 0.026458701 -0.011715457 -0.010995979
0.007896843 -0.0048664524 -0.040761564 0.04041287 0.054816976 -0.037656248 -0.01599799 0.015036311
0.005856699 0.045982808 0.0070119267 -0.028903522 0.033538636 0.0057003605 -0.029470125 -0.005596249
0.037096456 -0.05669145 0.011948567 0.023246994 0.045172855 0.0011634252 -0.04084233 0.0009897647
-0.029199593 -0.0065649673 -0.017610665 -0.044255547 -0.022005893 -0.037154578 -0.042263694 -0.04992241
0.026113572 -0.04581333 0.040799845 -0.025393598 -0.022378743 0.028380496 -0.018372525 -0.006349184
0.04001629 -0.00878515 0.03922152 0.031209528 -0.00030391302 0.0305217 -0.009395077 -0.005473893
-0.022642858 -0.01589251 0.046686243 -0.009451839 -0.020528642 0.028831663 0.029750278 0.014353598
0.04725736 0.0025757707 0.024606995 -0.03881513 0.027706983 0.00058073713 0.037757784 0.03705671
-0.02750383 -0.014481547 -0.020334171 -0.01415792 -0.019652652 0.0457547 -0.026715677 -0.0031961298
0.0070673716 -0.0029378962 -0.0006200072 -0.0146168 0.0048460932 -0.0025912593 -0.038985197 0.0405351
0.0205917 0.032441206 0.011151627 0.029494291 0.038673982 -0.035525464 0.036291257 0.0058349012
-0.042872727 0.0068223444 0.013386916 -0.034529682 -0.04345183 -0.047103826 -0.027068647 -0.047292832
0.033690367 -0.03087364 -0.041850287 -0.037740428 -0.007405429 0.02288463 0.036841825 0.010645182

fc.1.weight f4 [84, 120]
00000000: 6451 853d 641f 81bd 5fd1 22bd 1541 9e3d
00000010: f34f 30bd baae e73c 93e9 07bd 7ea4 2c3d
00000020: 842c b8bd 0430 753c 6886 23bd 833f 7dbd
00000030: 3362 783d 3c22 5fbd 0567 123d 2a3d 8b3c
00000040: 87f6 c0bd 716e 3a3d 67a5 5cbd bb7f debc
00000050: eed1 b8bd ab12 d8bc 0d2f bc3c 5e5c d33c
00000060: a899 243d 74b0 53bd 90ab 3f3d 23d4 26bd
00000070: ec14 b83d 525b 5bbd 39a0 bebc c059 443c
00000080: edc6 943d 24ab 1ebd 74c6 b0bd dcc8 043d
00000090: d2a0 923d 3877 aebd ecff 06bd e035 02bd
000000a0: 5fd4 823d 9e1a 8a3b 688f 9dbd 53a9 983d
000000b0: ab94 09bd 6d80 95bd ec1a c43d 664c 8cbc
000000c0: 65e8 0d3d e453 8b3c 9c3e 463d fd08 3ebd
000000d0: dce5 32bd ae42 69bd 8f61 21bd 4eeb 8fbd
000000e0: 0a11 863d 78ed 75bd 29ee 5dbb 6e50 baba
000000f0: f5ee 893d f8c1 fdbc 15cb e5bc df25 9e3c
00000100: d71b 9c3c e88b fa3c 7a45 ae3d f3f7 8dbd
00000110: 9b99 903c aa4a f3b9 c6d5 7abd e8a1 d5ba
00000120: 6e12 863c 13cc 973d 1ac5 8e3c 18c4 93bd
00000130: d058 39bc 7df5 413d 5c46 343d 85cd 5abd
00000140: 0b44 343c 5663 f8bc bef4 b33b 0586 8d3d
00000150: 1d14 93bd f1fa 9bbb 5518 883d c3fd d0bc
00000160: 4b43 b63d 4b67 0abc b962 e53c 529b 06bd
00000170: a8b9 b53c d8e6 7dbc 9d69 cf3d 8027 953d
00000180: 209a 64bb 9be0 80bd 4d40 433d 20e4 08bd
00000190: 3516 89bd 3341 19bb a168 72bd a6e9 49bc
000001a0: 8023 9cbd d307 9f3d 2863 1e3d 20bb c5bc
000001b0: b782 293d 6dce 48bd 8777 01bc 5b13 c4bd
000001c0: a32e 643d e4e3 86bd 6528 1cbd 0591 893c
000001d0: b5ff d5bd 115c 663d ed75 bb3b 3e84 62bd
000001e0: 138f a7bc 9f31 7dbd 6a34 313d f7c4 553d
000001f0: c33d 68bd 45b0 dd3c a87f f2bc 8553 ad3d
00000200: 4e9a b33c 4ee7 cb3c 945e 48bd e7de 753c
00000210: 60b3 b3b9 e9a4 36bd 77de 9fbd d047 ecbc
00000220: d1cc 9dbd fcba 53bd 3aa0 41bd 1137 00bd
00000230: 6eed 10bd c915 61bd 67f1 46b9 6090 3f3b
00000240: fa9f 60bc e634 d4bc 4ce3 ca3d e33d 52bc
00000250: a809 7cbd 0526 893d 0cae 413c 90c2 ddbc
00000260: 5751 babd 6c1d bcbd ca04 913d 85c6 03bd
00000270: 4d1f 8ebd 5f06 7d3d 5b98 bbbd 19f9 4b3d
00000280: 9bed 19bd a3ff 6f3d 5128 a4bc 16fb d63d
00000290: cbe6 343d d14f f6bb 7651 c53d 512b 87bd
000002a0: db3b cf3c 6f2d a03c 108c c4bd 7abe 5abd
000002b0: dbfd 99bd 68f9 18bd 86aa 47bc 890e 4abd
000002c0: 930f b73d 1a67 aebc 57f4 c73d 6c40 963c
000002d0: 3b98 2a3c 91ee d03c d611 aebd d77b 86bd
000002e0: 6687 743d 6c30 003c 0885 1f3c d112 91bc
000002f0: 38a6 4f3d 11e6 d8bd ce86 a9bd 27fa bdbd
00000300: 79b0 97bc 3f5a 573d a93c 963d bc43 b6bd
00000310: ad5c 4cba 4dea 853d 10b4 a2bd 1d0b 4b3b
00000320: bcbd 323d 6250 5e3d 0516 223d 374e 9b3d
00000330: 1c20 343d 4638 a5bd 7f6e 03bd 55f7 063c
00000340: 38a0 b8bd 489f 48bd af04 993b b150 15bd
00000350: b1fe 083d 62c6 033c cf6f 3c3d c5d2 86bd
00000360: a678 b83d e903 193d 4b05 153d b958 89bc
00000370: f677 1fbd aa94 3abc 101f 06bc 7af1 cfbd
00000380: eb5b 3e3c 441d 83bd 7de4 a9bd cfc4 f53c
00000390: 3f75 0bba e129 54bd 958b 49bb a29f f4bc
000003a0: b1ff 923d 4090 36bc f185 aebb 6e0f d43d
000003b0: 0221 9f3d ed61 8c3d 665a b6bd 72ec 7f3c
000003c0: 491d ff3b 06dc a63d 938b e53c 58e3 a93c
000003d0: 16f0 c23d f102 5c3d d8fd a7bd c269 afbd
000003e0: 79ba 5abd bb5e c2bc bbe5 dc3c 3548 533d
000003f0: 5b63 c5bd dd66 9bbc f1be a6bd 7686 aa3d
0.06509665 -0.063048154 -0.039750453 0.07727257 -0.043044996 0.028281558 -0.033181738 0.04214906
-0.08992866 0.014965061 -0.0399231 -0.061828148 0.060640525 -0.054476008 0.03574278 0.016996939
-0.09422021 0.04551548 -0.053868677 -0.027160516 -0.09024416 -0.02637609 0.022971654 0.02580088
0.0401856 -0.05168195 0.046794474 -0.040729653 0.089883655 -0.053553887 -0.02326976 0.011984289
0.072645046 -0.03873743 -0.08631602 0.032418117 0.0715958 -0.08518833 -0.03295891 -0.03178966
0.06388163 0.004214599 -0.07693368 0.07454171 -0.033589046 -0.07299886 0.095754474 -0.017126273
0.034645457 0.017007776 0.048399553 -0.04639529 -0.043676242 -0.056948356 -0.03939968 -0.07027303
0.06546219 -0.06004092 -0.0033863878 -0.0014214644 0.067350306 -0.03097628 -0.028050939 0.019305168
0.019056244 0.03058429 0.08509345 -0.06932058 0.01765137 -0.000464042 -0.061239026 -0.0016298862
0.01636621 0.07411971 0.01742797 -0.07215136 -0.011312678 0.047353256 0.044012412 -0.053418655
0.011002551 -0.030320805 0.005491822 0.06910328 -0.07181571 -0.004760139 0.06645266 -0.025511628
0.08899554 -0.0084474785 0.028001176 -0.03286297 0.022183254 -0.015496932 0.10127566 0.07282925
-0.0034881905 -0.0629284 0.047668744 -0.033420682 -0.06693689 -0.002338481 -0.059181813 -0.012323773
-0.076239586 0.07765164 0.03866878 -0.02413708 0.041384425 -0.049024988 -0.007902033 -0.09574004
0.05570854 -0.065864354 -0.03812446 0.016792784 -0.10449163 0.056240145 0.005720845 -0.055301897
-0.020453965 -0.0618149 0.043262877 0.052189793 -0.056699526 0.02706159 -0.029601887 0.08463196
0.021924164 0.024890568 -0.04891832 0.015006757 -0.00034275185 -0.044590864 -0.07806104 -0.028842837
-0.07705081 -0.051691994 -0.047271945 -0.031302515 -0.03538268 -0.054952417 -0.00018972681 0.0029230341
-0.013710016 -0.02590413 0.09906635 -0.012832138 -0.061532646 0.06696705 0.011821281 -0.027070314
-0.090975456 -0.09185299 0.070809916 -0.032171745 -0.06939564 0.061773654 -0.09159919 0.049798105
-0.037580114 0.058593404 -0.020038756 0.104971096 0.044165414 -0.007516839 0.09634678 -0.06600059
0.025297096 0.019552914 -0.09597027 -0.05340431 -0.07519122 -0.037347227 -0.012186652 -0.049330268
0.089385174 -0.021289397 0.09763401 0.018341266 0.010412271 0.025504382 -0.08499496 -0.06566589
0.05969944 0.007824045 0.009736307 -0.017709168 0.050695628 -0.10590757 -0.08277665 -0.092762284
-0.018516766 0.0525763 0.07335789 -0.08899638 -0.0007795792 0.0653883 -0.079445004 0.0030981966
0.043637976 0.054275878 0.03957178 0.07583278 0.043975934 -0.08067374 -0.0320878 0.0082376795
-0.09014934 -0.048980027 0.004669748 -0.036453906 0.033446018 0.008042904 0.046005066 -0.0658317
0.09007387 0.037357245 0.036382 -0.01676594 -0.038932763 -0.011387983 -0.008186117 -0.1015348
0.011618595 -0.06402066 -0.08295534 0.030001072 -0.00053199 -0.05179775 -0.0030753363 -0.029861275
0.071776755 -0.01114279 -0.0053260257 0.103545055 0.077699676 0.06854615 -0.08903961 0.015620338
0.0077854735 0.08147435 0.028020656 0.020738289 0.09518449 0.053713743 -0.08202714 -0.085650936
-0.05340049 -0.023726812 0.026965013 0.051582534 -0.09638091 -0.018969947 -0.08141888 0.08326428

fc.1.bias f4 [84]
00000000: 03fb a63d 042e d7bb 97ed b4bd e484 74bd
00000010: 6b5f 8e3d 6b5a 43bd 4bb4 883c e8f3 793c
00000020: 2a4b 223c 8af7 b73d 32b2 97bc 6d8e 753d
00000030: 11e8 9d3d 35d5 27bd fa5b a6bc e994 00bd
00000040: 8520 a2bd 5536 373d 85ad 383c b63b 1e3d
00000050: 4a95 b33c 8dc0 11bd a2f8 583d fbc0 dabb
00000060: a828 9ebd 4c12 41bc bec2 0b3c 5b38 60bd
00000070: 72ed 9fbd adc8 96bb c3a8 0bbd 45a5 60bd
00000080: b27b 89bd 29e3 f7bc 0642 8d3d 6330 883d
00000090: a763 9a3d 13be a73d f74b 9cbd ca23 8ebd
000000a0: ec36 b6bd c626 cb3c 0e43 cd3d 713a 85bd
000000b0: 607c 1bbb 9c43 4a3d 2050 283d 7c89 c2bc
000000c0: da98 88bd 0445 bc3b b85e 29bc 9709 963d
000000d0: 1372 8d3a 2c0f 54bd d378 bebd 32ac 77bd
000000e0: 4549 8abc 05dd 6fbd f36d c03d d4ce 593d
000000f0: 2f19 723d f19f 50bb 6bd2 a33d 42ba e6bc
00000100: 1d70 cfbc 1adf 6fbd 1e41 0bbd a387 c6bd
00000110: c650 a43d d16f a7bd 28a3 033a 8b26 07bd
00000120: 0c76 d8bc 1c00 a8bd c89d bdbd a7cb 5f3b
00000130: 0a9a 84bc 58b4 883d 0c3d f9bc e217 883d
00000140: 71ca a33d 4bee a83c d6cf 963d d261 51bd
0.081533454 -0.006566765 -0.08834379 -0.059697047 0.06951793 -0.04769365 0.016687533 0.015255906
0.009905616 0.08982761 -0.018517587 0.05995028 0.07710279 -0.040974814 -0.02030753 -0.03139201
-0.07916359 0.04472955 0.011271839 0.038631164 0.021921773 -0.03558402 0.05297149 -0.006675837
-0.07722598 -0.0117841475 0.008530317 -0.054741245 -0.07808961 -0.004601559 -0.03409649 -0.054845113
-0.06713046 -0.030259686 0.068973586 0.06649854 0.075385384 0.08190551 -0.07631677 -0.0694042
-0.08897194 0.024798762 0.10022555 -0.065052874 -0.0023725256 0.049380884 0.04109204 -0.023747198
-0.06669779 0.005745532 -0.010337524 0.07326048 0.0010791443 -0.05177228 -0.09300389 -0.060466953
-0.01688064 -0.05856039 0.09395971 0.053175762 0.05910605 -0.0031833614 0.079991184 -0.028164987
-0.025322014 -0.058562376 -0.033997647 -0.096938394 0.08023219 -0.08175624 0.00050215656 -0.03299574
-0.026423477 -0.08203146 -0.0925861 0.0034148486 -0.016186733 0.06675023 -0.030424617 0.0664518
0.07997597 0.02062144 0.0736386 -0.05111868

fc.2.weight f4 [10, 84]
00000000: 85ab 4a3d 4170 a6bb 93b3 2e3e 0d0e 19be
00000010: 355a 10be b078 22be faa9 ef3a dbda a0bc
00000020: d15b a9bd 53fe 9cbd 1503 32be 02c2 6a3d
00000030: c463 d83a f212 20be d6b3 0f3d ceaf 343e
00000040: af85 803d 6e92 c83d 8363 173e c3f1 e53d
00000050: 7ce2 55bd 83b5 9d3d 0cba e1bd 8c1e 1e3e
00000060: 4c4b 683d 7619 7bbd 0149 69bd b401 46bd
00000070: e87b 97bd 3cc5 04be a030 10be 1ed3 ed3c
00000080: 3f03 0a3e 6620 c13d 2075 debd a4bb 41be
00000090: 41db 253e 33a6 433c 68c0 b1bb cb88 af3d
000000a0: 05a5 08bd 45fe b53d f40f 8a3c 6d6c b2bb
000000b0: 674b 1bbc a0ba 54bd ea2b 8fbd ceba 55bc
000000c0: 63e5 dcbd 4c1f fabd d530 db3c 7a2d e6bd
000000d0: 0943 a83c 7290 01be 6298 5e3d 503b d63c
000000e0: 4ba9 fabd b65c 353c ae2b 123d 4734 10be
000000f0: 2faa 0cbe f980 693c af14 debb 0f13 c23d
00000100: 4090 593c b0bd d2bd 4bdb eebd 4083 7fba
00000110: 66b8 b4bd 6d2a 78bd 27b7 1c3d bed2 36be
00000120: 73a3 4f3d fe79 e63d 8146 093e 0e20 89bd
00000130: 1587 003e c064 04be 8577 803d 204c 0f3c
00000140: d77d 013e 2b00 233e 7acf d8bd 34c3 fb3d
00000150: 6e6c d83d c672 853d 205e dd3c 5163 a9bd
00000160: 6256 933c 47dc 373d 88d8 3a3d afca d13d
00000170: 248b 3ebd 6327 8dbc 9db0 7fbd 8509 b9bb
00000180: 2298 0fbe 6a72 3cbd dda7 a83c 8276 01be
00000190: 7de7 c43c ebab 39bd 1bbe a3bd 2a4c 553d
000001a0: 86ba 88bd 67f3 963d 4d8f 9cbd 1c5f 87bd
000001b0: 3476 f73d 42b2 1ebe b74f ca3d cd90 9e3d
000001c0: 36e2 a6bd 7eb2 c1bd 2c22 a7bd e8e2 1e3d
000001d0: b8aa 15be 993e 41be ac32 e4bc fd60 423e
000001e0: e5a7 fe3c 8498 aabd 6012 16bd ccb8 0ebe
000001f0: 8066 2f3e 78e6 e2bd c24a 223d 89a9 0f3e
00000200: 6834 7fbd d1ef b83c a00e 473d 0cfa 1f3e
00000210: ff5f 7fbd 2d27 0d3d 9fa8 023d db2f 1cbe
00000220: 7633 80bd 562a f63d 2736 1dbe 6e50 48bd
00000230: 56b5 023e fcf3 57be 2731 293e 0f49 363e
00000240: fad6 153e 245b 443d 3843 03be 60c7 81ba
00000250: d440 2abe 65c4 b7bd 68cc 01be b507 35be
00000260: 7948 893e d8a5 c53d 5342 0b3d 7919 0e3e
00000270: 241a 433e 5740 0f3d 686e 21bd 912d e63d
00000280: cfd8 5fbd 5911 193d 0f26 c13d 7fdf 2b3d
00000290: b466 103e 3281 5bbd 74fa 1abc 220e c43b
000002a0: 4906 3d3d dc68 47be b2ec 53be e036 593d
000002b0: 50dc cf3d d97e 36bd d2ad 15be 6d55 11be
000002c0: ccaa 5abd a952 fa3d fdfe 2bbe caf9 ba3b
000002d0: 776e 35be ed04 e23d d567 bbbd 2093 c1bd
000002e0: fa1a ad3d a4f9 9e3c a07c d13d 3c4b ef3d
000002f0: 06ff 193e ef42 8c3d cfa9 35be a312 b23d
00000300: 3abc 303e 96f3 25be 66fb 0b3e 4816 2bbe
00000310: ef0b 0dbe 6f4f 753d 85e2 e63d 7b19 923c
00000320: 2efb f7bd a46a 843d af05 b73d 56be d13c
00000330: 6c76 063e 9979 44bd e42f 163e e8ac 64bd
00000340: feb0 823d 39ae 2f3d 94a1 1abe 4204 e03d
00000350: 6dc0 1e3e 52bd eebd 6a6f 30bc f1e9 cc3d
00000360: db8d 383d de8e a33d ee5f 4cbc d031 20bd
00000370: 89fb d23d e9c4 fbbd 1ab9 df3c 523f 22bd
00000380: 652d cabd 39c8 b73c 61aa 5ebd 7be8 293e
00000390: 0523 f23d 6bb3 b53c 807d 9a3d 4fa3 37be
000003a0: 580c 8c3d 1452 35bd 4d95 1ebe e930 4a3d
000003b0: 4327 703d 4f32 0bbe 6f9d 0bbe b847 b43d
000003c0: 8929 80bc 8646 1f3e 6425 90bd 2898 45be
000003d0: 8fa9 d93d 2374 053e 7365 083e 2174 4e3d
000003e0: 6629 103e 2897 b33c cb37 743c 0f4e 093d
000003f0: e5b5 28bd 804f ce3d 5d2b 98bd c082 29bc
0.04947998 -0.0050792997 0.1706069 -0.14946766 -0.14096911 -0.15866351 0.001828491 -0.019635608
-0.08269466 -0.07665696 -0.17383988 0.057313927 0.0016509225 -0.15632227 0.035083614 0.17645189
0.06275498 0.09793554 0.14784054 0.11227753 -0.052217945 0.07700636 -0.11021814 0.1544134
0.056712434 -0.06130358 -0.056954388 -0.048341468 -0.0739668 -0.12965864 -0.14081049 0.029031333
0.13477801 0.09430008 -0.108621836 -0.18919235 0.1619692 0.01194148 -0.005424548 0.08571013
-0.0333605 0.08886389 0.01685331 -0.0054450543 -0.009478427 -0.051935792 -0.06990798 -0.013045026
-0.107859395 -0.12213001 0.026756683 -0.11239143 0.020539777 -0.12652758 0.054344542 0.02615133
-0.12239321 0.011069467 0.035686187 -0.14082442 -0.13736795 0.014251941 -0.006777368 0.094762914
0.013279021 -0.10290086 -0.116629206 -0.0009747036 -0.08824234 -0.060587335 0.038260605 -0.1785383
0.050692987 0.11253737 0.13405801 -0.06695567 0.1255153 -0.12929058 0.062727965 0.008746177
0.1264566 0.15918033 -0.10586448 0.122930914 0.10567556 0.06516032 0.027022421 -0.08270896
0.017985526 0.044887807 0.045616657 0.10243737 -0.046519414 -0.017230695 -0.06242429 -0.005646887
-0.14022878 -0.04600755 0.020587856 -0.12642863 0.024036163 -0.04532997 -0.07995244 0.05207459
-0.066762015 0.07370644 -0.0764452 -0.066099375 0.12083092 -0.15497687 0.09878486 0.07742462
-0.08148615 -0.09457873 -0.08160815 0.038790613 -0.14615905 -0.18871535 -0.027856193 0.1898231
0.031085918 -0.08329871 -0.036638618 -0.13937682 0.17128944 -0.11079115 0.039622076 0.14029516
-0.062305838 0.02257529 0.04859793 0.15622729 -0.06234741 0.03446119 0.03189909 -0.1525263
-0.062598154 0.12019794 -0.15352689 -0.04890483 0.12764487 -0.21089166 0.16522656 0.17801307
0.14632788 0.04793848 -0.1281861 -0.0009901337 -0.16626292 -0.08973006 -0.12675631 -0.17678721
0.26813105 0.09650773 0.0339988 0.13876905 0.1905294 0.03497347 -0.039411932 0.1123916
-0.054650124 0.03737006 0.09431087 0.04196119 0.14101678 -0.053590007 -0.009459127 0.00598313
0.046148572 -0.19473594 -0.20695761 0.05303085 0.10149443 -0.044554565 -0.14617088 -0.14192744
-0.05338554 0.122227974 -0.16796489 0.0057060467 -0.1771792 0.11036096 -0.09150664 -0.0945189
0.08452411 0.019406147 0.102288485 0.11684272 0.1503869 0.06848704 -0.17740558 0.08694961
0.17259303 -0.16206202 0.1367012 -0.16707718 -0.13774084 0.059890207 0.11273674 0.017834416
-0.121084556 0.064656526 0.08936631 0.025603455 0.13131112 -0.047967527 0.14666706 -0.05582896
0.06381415 0.04289076 -0.151007 0.10938312 0.15503092 -0.11657204 -0.010768751 0.10005558
0.04505716 0.07986234 -0.012474043 -0.039110005 0.10301883 -0.12293417 0.027309943 -0.03961117
-0.098719396 0.02243434 -0.054361705 0.1659259 0.11823086 0.02218028 0.075434685 -0.17933391
0.06838292 -0.04426773 -0.15486641 0.04936305 0.058631193 -0.1359341 -0.13634275 0.08802742
-0.015644806 0.15554246 -0.07038382 -0.19296324 0.10628044 0.13032584 0.1331995 0.050403718
0.14078292 0.021922663 0.01490588 0.033521708 -0.041189093 0.10073757 -0.07430146 -0.010346115

fc.2.bias f4 [10]
00000000: 4fee c2bd 6a39 0a3e df70 88bd 2a8e d4bd
00000010: bdf3 53bd d5a8 e53d 3886 99bc d1c8 2cbd
00000020: 0f79 193c 52ea a13c
-0.0951811 0.13498464 -0.066621535 -0.10378678 -0.05174612 0.11213843 -0.018740758 -0.0421837
0.0093672415 0.019765053
